…
            "2023-06-23 19:59:25.521766: I tensorflow/core/platform/cpu_feature_guard.cc:182] This TensorFlow binary is optimized to use available CPU instructions in performance-critical operations.\n",
            "To enable the following instructions: AVX2 FMA, in other operations, rebuild TensorFlow with the appropriate compiler flags.\n",
            "2023-06-23 19:59:26.622673: W tensorflow/compiler/tf2tensorrt/utils/py_utils.cc:38] TF-TRT Warning: Could not find TensorRT\n",
            "Overriding model.yaml nc=80 with nc=3\n",
            "\n",
            "                   from  n    params  module                                       arguments                     \n",
            "  0                  -1  1       928  ultralytics.nn.modules.Conv                  [3, 32, 3, 2]                 \n",
            "  1                  -1  1     18560  ultralytics.nn.modules.Conv                  [32, 64, 3, 2]                \n",
            "  2                  -1  1     29056  ultralytics.nn.modules.C2f                   [64, 64, 1, True]             \n",
            "  3                  -1  1     73984  ultralytics.nn.modules.Conv                  [64, 128, 3, 2]               \n",
            "  4                  -1  2    197632  ultralytics.nn.modules.C2f                   [128, 128, 2, True]           \n",
            "  5                  -1  1    295424  ultralytics.nn.modules.Conv                  [128, 256, 3, 2]              \n",
            "  6                  -1  2    788480  ultralytics.nn.modules.C2f                   [256, 256, 2, True]           \n",
            "  7                  -1  1   1180672  ultralytics.nn.modules.Conv                  [256, 512, 3, 2]              \n",
            "  8                  -1  1   1838080  ultralytics.nn.modules.C2f                   [512, 512, 1, True]           \n",
            "  9                  -1  1    656896  ultralytics.nn.modules.SPPF                  [512, 512, 5]                 \n",
            " 10                  -1  1         0  torch.nn.modules.upsampling.Upsample         [None, 2, 'nearest']          \n",
            " 11             [-1, 6]  1         0  ultralytics.nn.modules.Concat                [1]                           \n",
            " 12                  -1  1    591360  ultralytics.nn.modules.C2f                   [768, 256, 1]                 \n",
            " 13                  -1  1         0  torch.nn.modules.upsampling.Upsample         [None, 2, 'nearest']          \n",
            " 14             [-1, 4]  1         0  ultralytics.nn.modules.Concat                [1]                           \n",
            " 15                  -1  1    148224  ultralytics.nn.modules.C2f                   [384, 128, 1]                 \n",
            " 16                  -1  1    147712  ultralytics.nn.modules.Conv                  [128, 128, 3, 2]              \n",
            " 17            [-1, 12]  1         0  ultralytics.nn.modules.Concat                [1]                           \n",
            " 18                  -1  1    493056  ultralytics.nn.modules.C2f                   [384, 256, 1]                 \n",
            " 19                  -1  1    590336  ultralytics.nn.modules.Conv                  [256, 256, 3, 2]              \n",
            " 20             [-1, 9]  1         0  ultralytics.nn.modules.Concat                [1]                           \n",
            " 21                  -1  1   1969152  ultralytics.nn.modules.C2f                   [768, 512, 1]                 \n",
            " 22        [15, 18, 21]  1   2117209  ultralytics.nn.modules.Detect                [3, [128, 256, 512]]          \n",
            "Model summary: 225 layers, 11136761 parameters, 11136745 gradients, 28.7 GFLOPs\n",
            "\n",
            "Transferred 349/355 items from pretrained weights\n",
            "\u001b[34m\u001b[1moptimizer:\u001b[0m SGD(lr=0.01) with parameter groups 57 weight(decay=0.0), 64 weight(decay=0.001), 63 bias\n",
            "\u001b[34m\u001b[1mtrain: \u001b[0mScanning /content/datasets/fire-8/train/labels... 877 images, 1 backgrounds, 0 corrupt: 100% 877/877 [00:00<00:00, 1570.29it/s]\n",
…
